8x8checkpoint.pth (torch, 23575 bytes, 6 tensors)

fc1.weight f4 [64, 16]
0.116077036 0.28552875 -0.3736784 -0.09370019 -0.21142727 -0.035464354 0.024335664 0.20272794
-0.024577528 0.12440005 -0.15947957 -0.12449622 -0.3527705 -0.020921852 -0.11129197 -0.032497905
0.10366036 0.16227753 -0.115707874 -0.05854155 0.067606814 0.22147934 -0.023624519 0.21757421
-0.048879355 0.01638716 0.20421802 -0.29645798 -0.28925595 -0.013682413 -0.016831825 0.20462766
-0.14665662 -0.0649075 -0.13961032 -0.21993093 -0.18630254 0.25069305 0.052888647 0.123391576
-0.031833522 -0.18215856 -0.08190471 -0.22353986 -0.25994414 -0.012157562 0.15252273 0.11209824
-0.12080583 -0.0647551 0.28531173 0.29854855 0.18888628 0.0096412655 -0.052353516 -0.16370337
0.26325327 -0.20978194 -0.024450837 -0.2097249 0.34738472 -0.008731665 -0.24335392 0.08280647
0.08015502 0.14532082 0.15704973 0.04743303 0.40453035 0.3954536 -0.1808107 -0.08683769
0.31370327 0.20057957 0.219008 0.23644857 0.034965593 -0.173696 0.052131712 -0.2304015
-0.445762 0.33485827 0.19429553 -0.32353374 0.022501964 -0.015887085 -0.14608742 -0.13552961
-0.03981895 -0.19563544 0.060111087 0.13818029 0.015640184 0.27096704 -0.2506801 -0.15518296
0.13408086 0.04738298 -0.38574702 -0.051166046 0.34774008 0.11839686 0.13967176 -0.19923164
-0.19100271 0.10783282 -0.2844024 -0.16054823 -0.23081326 0.24319269 -0.12860306 0.28308073
-0.16454971 0.30713716 0.15162507 -0.1446958 -0.24169663 0.03787685 -0.0977881 0.09809785
0.14719528 0.15848921 -0.27196518 0.17992623 -0.26937065 -0.10039464 -0.14371851 -0.19751135
-0.21971197 -0.26114374 0.17685476 -0.04843962 -0.22687593 0.04042285 0.41615984 -0.058641892
-0.050359767 0.042574275 0.049771048 0.15092827 0.36729917 0.10023711 0.24350055 0.02893987
-0.064933166 0.07394145 0.3174653 -0.12903292 -0.22072583 -0.3612695 -0.24926658 -0.23559783
-0.023451388 0.11984362 0.2953802 -0.22123945 0.29082373 -0.38820028 -0.068606764 0.00518961
0.14974357 -0.13846292 -0.06519885 -0.23209366 -7.061695e-05 -0.11977299 0.14389256 0.071539655
-0.3439821 0.0024095583 0.15974703 -0.13054147 0.31644547 -0.051494084 -0.38756314 0.23132367
-0.20012793 -0.22814968 -0.010721124 -0.07599203 -0.030552778 0.049766254 0.3016849 -0.039491646
0.048042107 0.16132376 -0.19349489 -0.085141025 -0.27244523 0.3735965 0.30260295 0.3033768
-0.13339616 -0.25654334 -0.40609834 -0.15027103 -0.06146776 0.2011827 -0.14428905 0.0178285
-0.19404818 0.19154003 -0.23203175 -0.20127775 -0.27552688 0.23256505 -0.033208285 0.18185635
-0.04633629 0.026397772 0.13032918 -0.0019681265 0.09329168 0.040844306 -0.13726492 -0.0056500724
-0.2534332 -0.15799701 0.1250999 -0.3101046 0.07147392 0.60115373 0.048855036 -0.09332638
-0.2491285 0.2408814 -0.086500034 -0.060204152 -0.07228231 -0.048437994 -0.008203077 0.2216872
0.051431574 0.32057136 0.2553371 -0.20893908 0.22723395 -0.1933983 -0.20769778 0.075878575
0.21707137 0.25502977 -0.05873892 -0.22263965 0.21523021 -0.24945922 0.42388847 -0.09503801
-0.06821838 0.050707057 0.051417436 0.20123366 0.17319635 0.07356697 -0.33833972 -0.027009426
00000000: ccb9 ed3d d330 923e c652 bfbe e3e5 bfbd
00000010: 6480 58be 1243 11bd 965b c73c ea97 4f3e
00000020: d056 c9bc 74c5 fe3d 9d4e 23be e0f7 febd
00000030: 569e b4be 4e64 abbc 0bed e3bd 861c 05bd
00000040: e24b d43d 152c 263e 40f8 ecbd 44c9 6fbd
00000050: 7175 8a3d 7bcb 623e 3588 c1bc c6cb 5e3e
00000060: b835 48bd 5e3e 863c 871e 513e 57c9 97be
00000070: 5b19 94be 332c 60bc e5e2 89bc ea89 513e
00000080: 272d 16be 39ee 84bd 02f6 0ebe 9335 61be
00000090: 18c6 3ebe d75a 803e c4a1 583d b9b4 fc3d
000000a0: de63 02bd c687 3abe a8bd a7bd a2e7 64be
000000b0: 6617 85be 8330 47bc eb2e 1c3e c393 e53d
000000c0: 0c69 f7bd 529e 84bd 6114 923e 5bdb 983e
000000d0: 686b 413e 66f6 1d3c a470 56bd dba1 27be
000000e0: 22c9 863e 14d1 56be 1f4d c8bc 20c2 56be
000000f0: 69dc b13e 420f 0fbc c531 79be 7096 a93d
00000100: 5128 a43d fbce 143e a5d1 203e 2349 423d
00000110: 9a1e cf3e e578 ca3e 7126 39be f5d7 b1bd
00000120: b79d a03e bb64 4d3e a243 603e 931f 723e
00000130: 1538 0f3d 5ddd 31be 1088 553d 5fee 6bbe
00000140: eb3a e4be 8b72 ab3e 68f5 463e 37a6 a5be
00000150: 0a56 b83c a225 82bc f197 15be 46c8 0abe
00000160: 3219 23bd a854 48be 0b37 763d 227f 0d3e
00000170: d81f 803c 31bc 8a3e 2459 80be 48e8 1ebe
00000180: 7e4c 093e a814 423d a280 c5be 7d93 51bd
00000190: fd0a b23e 0e7a f23d 1d06 0f3e 6103 4cbe
000001a0: 3796 43be 74d7 dc3d 319d 91be c166 24be
000001b0: 505a 6cbe 8107 793e 85b0 03be f5ef 903e
000001c0: b87f 28be 1541 9d3e 9a43 1b3e 232b 14be
000001d0: 527f 77be c224 1b3d 2145 c8bd 87e7 c83d
000001e0: 5cba 163e ff4a 223e 053f 8bbe 953e 383e
000001f0: f3ea 89be b49b cdbd f22a 13be 6a40 4abe
00000200: 2dfc 60be a2b4 85be 6a19 353e 9f68 46bd
00000210: 2a52 68be 6e92 253d e712 d53e 7b32 70bd
00000220: 0b46 4ebd 5d62 2e3d badc 4b3d f18c 1a3e
00000230: a30e bc3e 1d49 cd3d 3558 793e 4e13 ed3c
00000240: aefb 84bd 9d6e 973d d08a a23e 3521 04be
00000250: f405 62be 51f8 b8be bd3f 7fbe 8f40 71be
00000260: 201d c0bc 9270 f53d 133c 973e 988c 62be
00000270: d9e6 943e 30c2 c6be b481 8cbd 9b0d aa3b
00000280: 6156 193e 39c9 0dbe fa86 85bd f6a9 6dbe
00000290: 3018 94b8 8b4b f5bd 9258 133e 6283 923d
000002a0: 6c1e b0be aee9 1d3b ba94 233e aaac 05be
000002b0: 2405 a23e 76eb 52bd ad6e c6be 1de0 6c3e
000002c0: 56ee 4cbe 12a0 69be a7a7 2fbc b6a1 9bbd
000002d0: d249 fabc b3d7 4b3d 7176 9a3e fec1 21bd
000002e0: cdc7 443d 0e32 253e 8623 46be 6b5e aebd
000002f0: f17d 8bbe 0a48 bf3e c6ee 9a3e 3454 9b3e
00000300: 0199 08be a659 83be 1fec cfbe a6e0 19be
00000310: 9ec5 7bbd d602 4e3e 82c0 13be 130d 923c
00000320: 91b4 46be 1223 443e bb99 6dbe c11b 4ebe
00000330: dc11 8dbe 8825 6e3e 6905 08bd 8d38 3a3e
00000340: 1fcb 3dbd 2440 d83c 0375 053e affb 00bb
00000350: b50f bf3d 5c4c 273d 2d8f 0cbe 3e24 b9bb
00000360: ffc1 81be f8c9 21be 301a 003e 08c6 9ebe
00000370: eb60 923d 36e5 193f 381c 483d e721 bfbd
00000380: 8b1b 7fbe 9da9 763e ee26 b1bd a198 76bd
00000390: bf08 94bd eb66 46bd 3366 06bc f801 633e
000003a0: eaa9 523d ee21 a43e 8bbb 823e 20f4 55be
000003b0: 04b0 683e 340a 46be baae 54be 3a66 9b3d
000003c0: f547 5e3e 4393 823e 3998 70bd a6fb 63be
000003d0: 4f65 5c3e 3d72 7fbe e907 d93e 4aa3 c2bd
000003e0: 14b6 8bbd 34b2 4f3d 179b 523d 3210 4e3e
000003f0: 625a 313e 48aa 963d dd3a adbe df42 ddbc

fc1.bias f4 [64]
-0.07193044 -0.24621992 -0.13501093 0.095218755 -0.065708034 0.18847318 0.11404006 0.030712608
-0.042931113 -0.04361857 -0.036316607 -0.0101841865 -0.21229464 -0.08782578 -0.20405678 0.14445567
-0.16271928 0.24560271 -0.05559066 -0.12453244 0.13909261 -0.008218793 0.15819721 0.14275785
-0.19758964 0.1930394 -0.077333525 -0.115295276 0.13331121 0.16829965 -0.20051828 -0.0965691
0.16689895 0.053568885 0.20434336 -0.1564305 -0.09654072 0.17873254 0.12800236 0.21248789
-0.07278591 -0.19745563 -0.085759036 -0.29656515 0.043195754 0.16613573 -0.021823717 -0.024462659
0.18104035 -0.18646543 0.26030183 -0.22800475 -0.23201083 -0.048466455 0.12272431 0.013853673
0.06656526 -0.16254656 0.076223165 -0.04502423 0.1184683 0.16321222 0.11398541 0.013962164
00000000: 4450 93bd 1321 7cbe 4e40 0abe 0d02 c33d
00000010: ef91 86bd 1dff 403e d68d e93d 0299 fb3c
00000020: 89d8 2fbd 63a9 32bd b9c0 14bd 93db 26bc
00000030: c463 59be 01de b3bd 43f4 50be 30ec 133e
00000040: e29f 26be 477f 7b3e 08b3 63bd dd0a ffbd
00000050: 4b6e 0e3e 1ea8 06bc 73fe 213e 1d2f 123e
00000060: f054 4abe 1fac 453e 0a61 9ebd ee1f ecbd
00000070: bc82 083e be56 2c3e aa54 4dbe 05c6 c5bd
00000080: 8fe7 2a3e 0c6b 5b3d 633f 513e 512f 20be
00000090: 24b7 c5bd aa05 373e 0d13 033e 6d96 593e
000000a0: c710 95bd cf31 4abe 6fa2 afbd 63d7 97be
000000b0: 08ee 303d 7c1f 2a3e a7c7 b2bc ea65 c8bc
000000c0: a462 393e cbf0 3ebe 4846 853e 147a 69be
000000d0: 3f94 6dbe c384 46bd e256 fb3d 84fa 623c
000000e0: 5e53 883d 9b72 26be e41a 9c3d 546b 38bd
000000f0: 829f f23d 1b21 273e 2f71 e93d 8fc1 643c

fc2.weight f4 [64, 64]
-0.024954153 -0.09695446 -0.062926166 0.08122976 -0.05012457 0.093511425 -0.07106065 -0.039349582
0.02581117 -0.114708185 -0.018477933 -0.012599468 -0.0024197008 -0.024988025 0.08466101 0.073928036
-0.100897744 0.056865327 -0.09804782 -0.110983305 0.016889827 -0.017949376 -0.042437702 -0.12056297
-0.06321308 0.02219136 -0.115700185 -0.10555534 -0.002371629 -0.09005052 -0.12842411 -0.03233319
-0.020125106 -0.113588154 -0.08346596 0.008195981 -0.11787146 -0.035695743 -0.08989914 -0.105463184
0.032849222 -0.09621121 -0.094729275 0.07128519 0.023370788 0.09383352 -0.033411935 -0.07870176
-0.011568308 -0.018076241 0.0759921 -0.12450999 0.006962045 0.055294022 -0.052957084 -0.071520366
0.03994518 -0.11977315 0.010871384 -0.1126828 0.053448085 -0.106880054 0.07685059 -0.13755135
-0.08302611 -0.06230268 0.11314474 -0.32619628 -0.15968612 0.26998857 -0.240834 0.13931838
-0.1513081 0.13739304 -0.18151914 -0.0076526 0.09971839 0.05886337 0.08392592 -0.09392997
0.1361529 -0.32257938 0.0405198 0.11966426 -0.4985502 -0.5219767 -0.00423415 0.054550447
-0.111037925 -0.123601906 -0.07333103 -0.41435426 -0.052199673 -0.27204382 0.14631906 -0.06693767
0.06603678 0.02804312 0.06065844 0.20844018 0.27868688 -0.12435797 0.054509304 0.13662654
0.062096708 0.10238798 -0.0034672767 -0.10170615 0.17698894 -0.0018754774 0.21526355 -0.0016091303
0.18070139 0.2594418 0.1865916 -0.6884628 -0.09833764 -0.074268624 -0.6407433 -0.10680285
-8.743875e-06 -0.1700155 -0.21333456 0.0025373278 -0.100866444 -0.334293 0.21742582 -0.086285904
0.14390673 0.09635061 -0.022000525 0.0019279366 0.10977885 0.018864697 -0.06564288 -0.077051535
0.092742085 0.10255167 -0.06472525 -0.2454957 0.1580379 -0.24909621 0.1243586 -0.11139706
-0.041742697 -0.2776321 0.20639732 -0.105917774 0.07047766 -0.014356794 -0.32524562 -0.25528023
-0.086453184 0.025424717 -0.06812829 -0.058580164 -0.30418617 -0.14213084 -0.09813542 -0.042398024
0.10537112 -0.09444759 0.20604424 0.18993707 -0.081288435 -0.11177613 -0.3205137 0.10623834
0.12483403 -0.10808417 -0.13484983 0.15238078 -0.10404548 0.16092153 0.08027571 0.010725994
-0.21419127 0.043008357 -0.308956 0.019587109 0.04744048 -0.090903826 -0.11293211 0.2216278
-0.023757972 0.0011958976 0.011349724 -0.05785222 0.20887756 0.07911279 0.19011863 0.0053064665
-0.032301087 -0.04311147 0.025864892 0.04474408 0.09172624 0.040166285 0.06496186 0.054402627
0.101558566 -0.10688136 0.06387795 0.005892473 0.05473146 -0.514647 -0.053240377 -0.21778348
0.072621904 0.059368994 0.14011994 -0.08307947 0.090818614 -0.19433776 0.011265163 0.2201864
0.0362064 0.19615836 -0.034337193 -0.26308596 -0.8268431 -0.0044052894 0.17370844 -0.013064528
-0.2860383 -0.48964852 0.12433968 0.11798054 -0.15526368 -0.1452258 -0.12053906 0.05409884
-0.023548651 -0.017852876 -0.18986395 -0.2440077 -0.18630163 0.1532824 0.071509264 -0.14085893
0.032548502 0.010899038 -0.24856931 0.13042703 0.23169683 0.100770496 -0.22830133 -0.14902814
0.048778567 -0.03986942 -0.021020692 0.014031711 0.013614756 0.20223576 0.15133405 0.21837565
00000000: a76c ccbc 0f90 c6bd 6fdf 80bd ca5b a63d
00000010: 6c4f 4dbd eb82 bf3d 3f88 91bd 072d 21bd
00000020: f271 d33c 20ec eabd 095f 97bc 006e 4ebc
00000030: d893 1ebb b0b3 ccbc c062 ad3d 9567 973d
00000040: 7aa3 cebd 9eeb 683d 4ccd c8bd 374b e3bd
00000050: 895c 8a3c 920a 93bc 28d3 2dbd b8e9 f6bd
00000060: dc75 81bd a8ca b53c 38f4 ecbd 662d d8bd
00000070: 556d 1bbb 686c b8bd 9c81 03be cf6f 04bd
00000080: 68dd a4bc e8a0 e8bd 34f0 aabd 7048 063c
00000090: 9866 f1bd b335 12bd 0a1d b8bd 15fd d7bd
000000a0: e88c 063d 620a c5bd 6c01 c2bd f8fd 913d
000000b0: 1874 bf3c ca2b c03d f4da 08bd 632e a1bd
000000c0: 0089 3dbc a014 94bc bfa1 9b3d 18ff febd
000000d0: de21 e43b fc7b 623d 87e9 58bd 4579 92bd
000000e0: 8f9d 233d a04b f5bd e41d 323c 3dc6 e6bd
000000f0: 61ec 5a3d eee3 dabd d863 9d3d 43da 0cbe
00000100: 9809 aabd 1831 7fbd 6eb8 e73d 3303 a7be
00000110: c284 23be f13b 8a3e 309d 76be 7aa9 0e3e
00000120: 83f0 1abe c3b0 0c3e 27e0 39be a9c2 fabb
00000130: 2839 cc3d b81a 713d 5ae1 ab3d 5b5e c0bd
00000140: aa6b 0b3e 2029 a5be 17f8 253d 8912 f53d
00000150: f941 ffbe 44a0 05bf a0be 8abb 4a70 5f3d
00000160: da67 e3bd ff22 fdbd 942e 96bd 3e26 d4be
00000170: 53cf 55bd 5449 8bbe aad4 153e 9e16 89bd
00000180: 4b3e 873d afba e53c fc74 783d 5871 553e
00000190: 0cb0 8e3e 64af febd 2645 5f3d d4e7 0b3e
000001a0: 1e59 7e3d cab0 d13d 403b 63bb 504b d0bd
000001b0: 973c 353e 94d2 f5ba 0c6e 5c3e 74e9 d2ba
000001c0: c909 393e 8ed5 843e de11 3f3e 193f 30bf
000001d0: 3f65 c9bd 261a 98bd c107 24bf 74bb dabd
000001e0: a8b2 12b7 8b18 2ebe 6074 5abe 4c49 263b
000001f0: 1193 cebd 7428 abbe e0a4 5e3e aab6 b0bd
00000200: 495c 133e 7853 c53d 723a b4bc d1b2 fc3a
00000210: bcd3 e03d 238a 9a3c c66f 86bd 32cd 9dbd
00000220: 90ef bd3d 9c06 d23d ac8e 84bd 3a63 7bbe
00000230: b0d4 213e 1413 7fbe b9af fe3d 2424 e4bd
00000240: 64fa 2abd cb25 8ebe d259 533e 6beb d8bd
00000250: 9756 903d c238 6bbc 9886 a6be 17b4 82be
00000260: 5e0e b1bd 7f47 d03c d886 8bbd c1f1 6fbd
00000270: 4abe 9bbe bf8a 11be 39fb c8bd 8da9 2dbd
00000280: d0cc d73d bd6d c1bd 43fd 523e dd7e 423e
00000290: 8d7a a6bd e2ea e4bd 5f1a a4be 7d93 d93d
000002a0: fca8 ff3d 3c5b ddbd 1316 0abe b509 1c3e
000002b0: cc15 d5bd 9dc8 243e 9767 a43d 14bc 2f3c
000002c0: f554 5bbe 8829 303d 7b2f 9ebe 2575 a03c
000002d0: f350 423d c92b babd f348 e7bd 66f2 623e
000002e0: 14a0 c2bc aabf 9c3a 31f4 393c 73f6 6cbd
000002f0: 00e4 553e e305 a23d 75ae 423e dee1 ad3b
00000300: 254e 04bd a795 30bd 9ce2 d33c 9245 373d
00000310: f8da bb3d 6785 243d b90a 853d 4ad5 5e3d
00000320: f0fd cf3d 9de4 dabd 71d2 823d a515 c13b
00000330: 182e 603d e8bf 03bf 9512 5abd a202 5fbe
00000340: cbba 943d e72c 733d 9a7b 0f3e 9225 aabd
00000350: 1cff b93d 7a00 47be 8591 383c 8b78 613e
00000360: 294d 143d bddd 483e 28a5 0cbd 34b3 86be
00000370: fdab 53bf 3f5a 90bb a0e0 313e 9a0c 56bc
00000380: 9d73 92be 36b3 fabe cda5 fe3d c89f f13d
00000390: 71fd 1ebe 12b6 14be 2fdd f6bd bf96 5d3d
000003a0: 1ae9 c0bc 3240 92bc b26b 42be 28dd 79be
000003b0: dbc5 3ebe 10f6 1c3e 7373 923d 533d 10be
000003c0: 9451 053d e191 323c f488 7ebe aa8e 053e
000003d0: ef41 6d3e c360 ce3d d3c7 69be d59a 18be
000003e0: 09cc 473d 1e4e 23bd 9633 acbc 43e5 653c
000003f0: 6d10 5f3c e416 4f3e 50f7 1a3e de9d 5f3e

fc2.bias f4 [64]
0.052527294 -0.051652238 0.08531443 0.027969211 0.10988975 0.07209333 -0.10686594 0.17865759
0.18638459 -0.11280838 0.030014027 -0.13762535 0.0060551516 -0.0117808245 -0.11171463 -0.011117625
0.037297077 0.19984025 0.114618205 0.08514755 0.11403884 0.048760932 0.12829049 0.11227749
0.067743324 -0.04684562 0.039948605 -0.06615693 -0.07319338 0.07552042 0.05280706 -0.049450204
-0.081564866 0.068499476 -0.044723127 -0.07885379 -0.1572856 0.10466635 0.08048923 -0.14012484
-0.014221395 -0.039863333 0.10162511 -0.06193888 -0.057611186 -0.014999507 -0.019480541 -0.10077002
0.031764288 -0.032740112 -0.048620675 0.122880064 -0.107452564 0.025761306 0.036866985 0.07188373
0.04056243 -0.11619913 -0.026447097 0.07704977 0.14859402 -0.0064423042 -0.018446783 0.029276099
00000000: dc26 573d 4c91 53bd 55b9 ae3d b01f e53c
00000010: e10d e13d aba5 933d 88dc dabd 04f2 363e
00000020: 9adb 3e3e 1408 e7bd fadf f53c a9ed 0cbe
00000030: 4b6a c63b 5c04 41bc a4ca e4bd b326 36bc
00000040: d2c4 183d eca2 4c3e f3bc ea3d d761 ae3d
00000050: 328d e93d 8bb9 473d 955e 033e bef1 e53d
00000060: 03bd 8a3d 31e1 3fbd 26a1 233d 497d 87bd
00000070: 69e6 95bd 73aa 9a3d 374c 583d 4c8c 4abd
00000080: 7b0b a7bd 7449 8c3d 992f 37bd 197e a1bd
00000090: 7a0f 21be 505b d63d 8ad7 a43d e37c 0fbe
000000a0: db00 69bc bc47 23bd d320 d03d 9fb3 7dbd
000000b0: b5f9 6bbd 7ec0 75bc a895 9fbc 8360 cebd
000000c0: 451b 023d 7f1a 06bd 7926 47bd 8ba8 fb3d
000000d0: 1710 dcbd 6009 d33c d601 173d c737 933d
000000e0: ca24 263d cff9 edbd 95a7 d8bc 45cc 9d3d
000000f0: 0829 183e f719 d3bb b51d 97bc 6ed4 ef3c

fc3.weight f4 [3, 64]
-0.11796511 0.24034849 -0.35818756 -0.16072457 -0.15431365 0.28237948 0.07688213 -0.19693784
-0.113003165 0.077434175 -0.13447952 0.20430167 0.13449904 -0.0964479 0.110443965 0.33570322
-0.105055414 -0.033665076 -0.02698847 -0.08126937 -0.12818561 0.32170314 0.3349164 -0.16627094
-0.13870925 0.11058031 -0.083933264 -0.09936689 0.03749727 0.18685009 0.09971095 -0.08137616
-0.012882307 0.1982478 -0.14882143 -0.45460147 0.26363504 -0.015175596 0.19382855 -0.0965036
-0.06453738 -0.20570597 0.22216502 0.0957703 0.08434433 0.009248075 0.38119763 0.1721509
-0.16324523 -0.12903464 -0.24368577 -0.1271475 0.16944218 0.086692646 -0.010281473 -0.080226466
0.28275606 0.042259607 0.13689789 -0.028879512 -0.1409193 0.3368084 -0.06994772 -0.12147143
-0.104316786 0.32535312 0.26083294 -0.35349894 -0.026906146 0.25249216 0.16205013 -0.032920737
-0.13513525 0.032423276 0.009549434 0.21106964 -0.19148602 -0.027266428 -0.10108716 0.048194278
-0.06488688 -0.08074365 -0.22344261 0.05653725 -0.101526156 0.1867288 0.13886684 -0.16004726
0.057874773 0.104614906 -0.24107078 -0.20637012 -0.18362126 0.20050086 0.28413782 -0.12362483
0.35218725 -0.039980937 -0.11618245 0.3466632 -0.08392412 -0.08805403 0.25421625 0.1189273
-0.11909425 0.13062818 0.259948 -0.35072932 0.0054253163 0.024007553 0.31616053 0.12335686
0.15916212 -0.21555471 0.11875546 -0.0014011962 0.015359894 0.051842075 0.00801817 -0.16592571
0.03414598 0.10155793 -0.10915449 0.29388332 -0.2034994 0.18301961 0.014116214 -0.0010334322
0.08578427 0.46695757 -0.13704094 -0.2520285 -0.11439496 0.2352852 -0.14024577 -0.18590344
-0.037715722 0.39634547 0.2704523 0.2281109 0.06876339 0.0662708 -0.17907964 -0.26836273
-0.0641436 -0.12291195 0.13002378 -0.099984705 -0.23942414 0.19794099 -0.02927114 -0.1308558
-0.07201643 -0.092883036 -0.20670669 0.20458235 -0.17073667 0.3255445 0.26232442 -0.40327275
-0.21796033 0.22292836 0.0013556551 0.19344983 0.07079814 0.0047050267 0.075115435 0.4014902
-0.12108885 -0.24277714 -0.09171547 0.11212954 0.30504212 -0.20808506 0.18943404 -0.08765708
0.040511727 -0.10486027 0.16303891 0.3683878 -0.1628785 0.013614533 0.042378232 -0.16318704
0.3171669 -0.27076128 0.15414508 0.2428097 0.021732057 0.0553962 -0.10807756 -0.100222714
00000000: b197 f1bd ea1d 763e 5c64 b7be fb94 24be
00000010: 6604 1ebe 0b94 903e 6174 9d3d 13aa 49be
00000020: 346e e7bd cf95 9e3d 00b5 09be 7534 513e
00000030: 1eba 093e 7a86 c5bd 7230 e23d 4be1 ab3e
00000040: 4b27 d7bd 64e4 09bd ed16 ddbc 8e70 a6bd
00000050: 1743 03be 46b6 a43e 2a7a ab3e ee42 2abe
00000060: cc09 0ebe ee77 e23d 34e5 abbd de80 cbbd
00000070: bd96 193d a155 3f3e 4135 cc3d 8ba8 a6bd
00000080: 5010 53bc 7901 4b3e a564 18be 86c1 e8be
00000090: 2cfb 863e 10a3 78bc fe7a 463e aea3 c5bd
000000a0: 2d2c 84bd 96a4 52be 3a7f 633e 3823 c43d
000000b0: b8bc ac3d 3d85 173c 562c c33e 5348 303e
000000c0: c229 27be a821 04be c388 79be f432 02be
000000d0: 4082 2d3e ea8b b13d a073 28bc c64d a4bd
000000e0: 67c5 903e 6918 2d3d f62e 0c3e ba94 ecbc
000000f0: 264d 10be 2772 ac3e c040 8fbd 03c6 f8bd
00000100: 0aa4 d5bd af94 a63e e58b 853e d0fd b4be
00000110: 476a dcbc a746 813e 78f0 253e e5d7 06bd
00000120: e560 0abe 45ce 043d 3b75 1c3c a422 583e
00000130: e914 44be d85d dfbc c906 cfbd 5d67 453d
00000140: 6ae3 84bd ed5c a5bd 24ce 64be 9a93 673d
00000150: f2ec cfbd d635 3f3e 1c33 0e3e 6ee3 23be
00000160: 190e 6d3d 5740 d63d 42db 76be b052 53be
00000170: 3607 3cbe 1950 4d3e 837a 913e 042f fdbd
00000180: e351 b43e 0dc3 23bd 10f1 edbd d77d b13e
00000190: 69e0 abbd ac55 b4bd a228 823e 2890 f33d
000001a0: b0e7 f3bd 65c3 053e e717 853e cb92 b3be
000001b0: dac6 b13b 7dab c43c cbdf a13e 85a2 fc3d
000001c0: 65fb 223e 60ba 5cbe 1036 f33d 58a8 b7ba
000001d0: 11a8 7b3c 5b58 543d a45e 033c 6ee8 29be
000001e0: a8dc 0b3d 9bfd cf3d 648c dfbd e077 963e
000001f0: 2662 50be 7e69 3b3e b147 673c 3b74 87ba
00000200: aaaf af3d 1015 ef3e 7654 0cbe e109 81be
00000210: e847 eabd 9aee 703e 969c 0fbe 795d 3ebe
00000220: cd7b 1abd cbed ca3e b978 8a3e e795 693e
00000230: d2d3 8c3d fcb8 873d a760 37be d766 89be
00000240: b85d 83bd 43b9 fbbd f424 053e c8c4 ccbd
00000250: 9a2b 75be 0bb1 4a3e 08ca efbc 10ff 05be
00000260: 5a7d 93bd 7639 bebd ebaa 53be 097e 513e
00000270: 98d5 2ebe c5ad a63e 634f 863e c479 cebe
00000280: fe30 5fbe 5547 643e 3db0 b13a b617 463e
00000290: 9dfe 903d a02c 9a3b 1fd6 993d 2090 cd3e
000002a0: 6efd f7bd 929a 78be 52d5 bbbd 2ca4 e53d
000002b0: 7b2e 9c3e 4014 55be fffa 413e 8e85 b3bd
000002c0: a0ef 253d fbc0 d6bd acf3 263e 539d bc3e
000002d0: 9fc9 26be 7d0f 5f3c cc94 2d3d 811a 27be
000002e0: b363 a23e 39a1 8abe 35d8 1d3e 1ba3 783e
000002f0: 6d07 b23c 20e7 623d c557 ddbd 9141 cdbd

fc3.bias f4 [3]
-0.1247191 -0.1284447 0.017323721
00000000: ba6c ffbd 0287 03be 7aea 8d3c
