checkpoint.pth (torch, 23575 bytes, 6 tensors)

fc1.weight f4 [64, 16]
000000 58 5b 6e 3c 0c a9 f6 3d c7 c6 30 be 31 72 3d be
       0.014548145 0.12043962 -0.17263328 -0.18500592
000010 55 17 dd bd 3f 8b 34 3d aa 78 68 bc fd 95 46 3e
       -0.10795466 0.044078108 -0.014188925 0.19393153
000020 0d b8 5c bc c8 af aa 3d b7 9f 9b bd de 45 f9 bc
       -0.0134716155 0.08334309 -0.075988226 -0.030428823
000030 29 a0 85 be 7e e2 2b be da e6 39 bd ca 16 b0 b9
       -0.26098755 -0.16785619 -0.045386173 -0.00033586315
000040 49 b8 c7 3c 3a 0b 18 3e 6c 5e 37 be 20 6e b2 bd
       0.024379866 0.14848033 -0.17907113 -0.08712411
000050 ed 26 3b 3d 80 03 65 3e 3b 86 86 bd 73 3a 51 3e
       0.04569142 0.22364616 -0.06568571 0.20432453
000060 c7 ec 8b bc e8 65 7a 3d 77 f3 56 3e 0e fb 71 be
       -0.017080678 0.06113234 0.20991312 -0.23630926
000070 64 2d 48 be 86 4c 30 bd e4 f9 0b be bd 0e 7c 3e
       -0.19548565 -0.04304173 -0.13669544 0.24614997
000080 91 06 30 be d3 6b a0 bd 02 81 4a be 10 a2 67 be
       -0.17190005 -0.07833066 -0.19775775 -0.22620416
000090 ab 28 2b be a2 a1 7c 3e a4 65 ae 3d 89 71 de 3d
       -0.16714732 0.24671033 0.0851548 0.10861499
0000a0 1f d2 6c 3d 2b 64 79 bd 39 95 cf 3c 09 24 62 be
       0.057817575 -0.060886543 0.02533971 -0.22084059
0000b0 f4 d5 65 be 36 c1 ea bd d7 6d df 3d b6 64 10 3e
       -0.22444898 -0.11462633 0.10909622 0.14100918
0000c0 e2 c3 ed bd 2e f4 a4 3c 5c d3 0d 3e 19 ea 8f 3e
       -0.11609627 0.020135965 0.13850158 0.2810829
0000d0 5a 68 77 3d 20 e9 c5 3c 69 41 12 3e ea 18 3d be
       0.06040225 0.024159014 0.14282764 -0.18466535
0000e0 45 7f 6c 3d 4d 8b 15 be e1 ed 04 be 3f 03 0f be
       0.05773856 -0.1460392 -0.12981369 -0.13966082
0000f0 58 7d 9a 3d a7 88 a3 3d 9b a8 47 be c9 76 61 3d
       0.07543439 0.07985049 -0.19497912 0.055044923
000100 4f 74 53 3e 07 11 fa 3c bf d3 bc 3c 12 2f 48 bd
       0.20649837 0.030525697 0.023050187 -0.048873015
000110 c6 19 1a 3e 82 b1 8d 3e 80 9d 60 be 88 d5 f0 bd
       0.15048894 0.2767449 -0.21935081 -0.11759478
000120 86 6d 1b 3e ab 46 21 3e 1c 9c 14 3e b3 49 3d 3e
       0.15178499 0.15749614 0.14512676 0.18485145
000130 07 48 92 bb c0 99 0a be f1 b8 05 bd 26 af f4 bd
       -0.0044641527 -0.13535213 -0.032647077 -0.119474694
000140 c9 47 5e be a0 d0 46 3e 3f 35 f6 3d b6 44 74 be
       -0.21707071 0.19415522 0.12021875 -0.23854336
000150 78 da 9f 3d 6d 1d e4 3c 45 5b ad 3c 7d 09 4a be
       0.078053415 0.027846063 0.021161685 -0.19730182
000160 cf 77 24 3e 2e 8e 52 be 45 19 fe 3d 40 e6 d3 3d
       0.16061328 -0.2056205 0.124071635 0.10346651
000170 ce 33 01 3e d6 e6 a8 3c 45 64 8d be 5a c0 18 be
       0.12617418 0.020617884 -0.27615562 -0.14917126
000180 73 a7 b3 3d 55 26 19 3c 15 1f 45 be b7 63 08 be
       0.08772173 0.009347518 -0.19250138 -0.13319288
000190 1f d7 4e 3e 3b b6 dd 3d 1a 31 e7 bd 33 5e d1 bd
       0.2019925 0.10825773 -0.11288662 -0.10223045
0001a0 f9 36 5e be d8 cb 8b 3c 84 20 16 be 6d f5 3f be
       -0.21700658 0.017064974 -0.14660841 -0.18745966
0001b0 3b 69 02 bd 89 80 54 bc df 4e bb bd d3 7e fa 3d
       -0.031838637 -0.012970098 -0.09145903 0.12231221
0001c0 5d d9 14 be f6 a0 66 3e 3e d0 27 3e 1a 06 71 be
       -0.14536043 0.22522339 0.16388032 -0.23537484
0001d0 0b 96 a1 bd 42 d2 db 3b f5 e8 c3 3c d2 43 fd 3c
       -0.078899466 0.0067084143 0.023914794 0.030916128
0001e0 f9 67 dc 3d 4c 5a b1 3c 9e 13 bb bd 7d f2 1a 3e
       0.10762019 0.021649502 -0.09134601 0.15131564
0001f0 74 3d 83 be 7f 01 27 be 91 9e 66 bd b6 2f f9 bd
       -0.25632823 -0.16309164 -0.056303564 -0.12167303
000200 9f ef 8e bd fa f5 4a be e8 77 5b bd 9c c1 bd 3d
       -0.06979298 -0.19820395 -0.05358115 0.09265444
000210 fb f1 2f be 49 94 9f bc 0b c5 35 3e f9 72 15 bd
       -0.17182152 -0.019479888 0.17750947 -0.0364866
000220 34 63 ba 3c 52 10 d3 bc 4a d6 7b 3d db 47 09 3e
       0.022752382 -0.025764618 0.06148366 0.13406317
000230 39 94 1e 3e 06 41 ee 3d db 82 5b 3e 53 9a 52 3a
       0.1548623 0.11633496 0.21436636 0.00080338604
000240 b4 05 49 be 70 54 ec bd 18 98 0b 3e 61 50 f8 3c
       -0.19631082 -0.11539543 0.13632238 0.030311765
000250 22 9d a6 bd 33 16 45 be b8 55 49 be 99 0c 43 be
       -0.081354395 -0.1924675 -0.19661605 -0.19047774
000260 f0 63 aa bd a9 e5 0a 3e 25 6b 06 3e e5 85 71 be
       -0.08319843 0.13564171 0.1312681 -0.23586233
000270 fa 81 11 3e 1e ca 4c be 14 c0 40 bd 97 6c e9 bd
       0.14209738 -0.19998977 -0.04705818 -0.11397665
000280 70 3c bd bc 06 ce a0 bd e8 13 4b be 59 42 61 be
       -0.023100108 -0.07851796 -0.19831812 -0.21997966
000290 80 59 bb bc c0 78 8b bb e6 8b c2 bd 88 26 c2 3d
       -0.022869825 -0.004256338 -0.0949934 0.094800055
0002a0 78 b3 70 be fb dd 77 bd e3 72 64 3e 5c 4a ef bd
       -0.23505962 -0.06051443 0.22309451 -0.11684105
0002b0 19 13 3f 3e 54 e6 7c 3d 65 8d 31 be d6 b9 28 3e
       0.18659629 0.061743096 -0.17339094 0.16477141
0002c0 f7 15 b8 3c fb b9 8b bd c8 ca 5e 3e 52 48 58 be
       0.022471411 -0.06822582 0.21757042 -0.21121338
0002d0 02 e5 14 bd fe e7 bb bd b1 f0 1b 3e 65 d0 f4 3c
       -0.03635121 -0.091751084 0.15228535 0.029884527
0002e0 f8 9f 15 3e 29 f9 ef 3d ae 46 52 bc 1d 9e 72 bd
       0.14611804 0.117174454 -0.012834234 -0.05923282
0002f0 41 9e 34 be aa c7 0e 3e 2d be 43 3e 44 38 40 3e
       -0.17638494 0.13943353 0.19115515 0.18771464
000300 0d c5 2d be f7 ba ff 3d 0c ff 50 be 02 ba 29 be
       -0.169697 0.124868326 -0.20409793 -0.16574863
000310 c2 6f 0e be 31 5b fd 3d ab 71 a4 bd 92 e3 2b 3d
       -0.1390982 0.12370909 -0.08029493 0.041965075
000320 e9 a8 89 3c 3a 09 20 3e dc 7d 38 be e3 c2 43 be
       0.016804175 0.1562852 -0.18016762 -0.19117312
000330 16 5e 1f be b8 f0 1b 3e 04 5a da bd c4 fb c0 3d
       -0.15563235 0.15228546 -0.106617 0.094230205
000340 dd 85 af 3d 00 de 2f 3d 76 b0 3e bb ca 9a 35 bd
       0.08570454 0.042936325 -0.0029096878 -0.04433707
000350 ef c7 0c 3d 70 9b 85 bd b5 12 8d bc 42 ab c1 bc
       0.03437036 -0.06523788 -0.017220834 -0.023641232
000360 11 df 2b be 1d 02 f6 bd 60 03 59 3e 18 c4 50 be
       -0.16784312 -0.12012122 0.21192694 -0.20387304
000370 09 17 34 bd f2 80 6d 3e 13 8b b1 3d fc ad 66 3c
       -0.04396728 0.2319372 0.086691044 0.014079567
000380 c5 78 64 be 76 77 12 3e 1b 2e 40 be 3b 58 a5 bd
       -0.22311695 0.14303383 -0.18767588 -0.08073469
000390 91 ca 3d bd 0b 48 5e bc fc bb 37 bb 59 d4 53 3e
       -0.04633576 -0.013566981 -0.0028035631 0.20686473
0003a0 1c 8d 83 3d 2c b4 56 3e 14 d4 d6 3d e2 a9 2e be
       0.06423399 0.20967168 0.104896694 -0.17056993
0003b0 51 b4 be 3d a3 53 15 be 48 a4 06 be dd 83 bf 3d
       0.093117364 -0.14582686 -0.13148606 0.09351323
0003c0 e8 d4 85 3d 6b c2 35 3e a6 5e 4a bd 07 5d b2 bc
       0.06534749 0.17749946 -0.04940667 -0.021772875
0003d0 6a 63 aa 3d bf 55 2b be 7d 64 15 3e a0 bc 8b be
       0.08319743 -0.16731928 0.14589114 -0.27292347
0003e0 78 bd f8 3c e7 33 55 bd 84 d1 fc bd b9 17 54 3d
       0.030363783 -0.05205145 -0.123446494 0.051780436
0003f0 12 a9 36 3e c5 9e 7d bd 54 f0 70 be 69 f3 31 bd
       0.17837933 -0.061918993 -0.23529178 -0.043445025

fc1.bias f4 [64]
000000 7a ab 7f bc 9e bd 88 be c3 e5 44 be bf 3b 78 3d
       -0.015604848 -0.26707166 -0.19228272 0.060603853
000010 a0 39 0f be 63 34 a7 3d c0 75 2e 3e 91 8f 93 3c
       -0.13986826 0.08164289 0.17037106 0.018012794
000020 d4 38 4e bd ad e8 85 bd 2f fe f1 bc c5 07 2c 3d
       -0.050347164 -0.0653852 -0.02954015 0.041999597
000030 e0 01 62 be f7 86 b5 bd c9 a1 72 be d2 41 df 3d
       -0.22071028 -0.08863633 -0.23694529 0.10901226
000040 80 dc 69 be e1 a9 54 3e 65 79 e6 bc 01 dc 3b be
       -0.2283802 0.20767929 -0.028134057 -0.18345644
000050 58 c6 a6 3d dd 44 21 3d f8 48 27 3e be fa c5 3d
       0.081433 0.039372314 0.16336429 0.09666966
000060 35 d9 8f be 16 38 1a 3e dd 9b 93 bd 77 e3 e4 bd
       -0.28095403 0.15060458 -0.07207463 -0.11176198
000070 b2 1a 2e 3e d1 6f 11 3e 5a f6 8b be e3 91 37 bd
       0.17002371 0.14202811 -0.2733639 -0.044816863
000080 40 b0 09 3e 1e f3 ea 3c 12 ac 57 3e 86 40 1f be
       0.1344614 0.02868038 0.21061733 -0.15551957
000090 2d 01 34 be ed 64 52 3e 68 54 de 3d 0f 62 51 3e
       -0.17578574 0.20546313 0.10855943 0.20447563
0000a0 7a ea 2b be e3 ad 36 be 6d de ae bc 14 1a 75 be
       -0.16788664 -0.1783977 -0.021346295 -0.2393573
0000b0 83 c4 a0 3d a7 c9 2f 3e 01 06 59 3d db c8 96 bd
       0.07849982 0.17166768 0.05298424 -0.07362529
0000c0 21 12 dc 3d 10 7f 22 be 0a f1 4c 3e bd 2d 90 be
       0.10745645 -0.15868783 0.20013824 -0.28159896
0000d0 c5 7e 85 be f0 59 bd bd e9 74 4a 3e 34 41 7f bb
       -0.2607328 -0.0924567 0.1977116 -0.0038948776
0000e0 7e b0 61 3d 2b d9 67 be f0 db 33 3d e0 1e 14 bd
       0.055099957 -0.22641437 0.04391092 -0.036162257
0000f0 eb 94 8b 3d 41 a0 fc 3d b0 b7 cf 3d f4 0e 80 bd
       0.06815513 0.123352535 0.101424575 -0.06252852

fc2.weight f4 [64, 64]
000000 60 4f fc bb 4a 80 ba bd 04 31 39 bd b2 0e 88 3d
       -0.007699892 -0.091065004 -0.04521276 0.06643428
000010 6c 4f 4d bd 26 8f 80 3d aa 85 85 bd 08 7d ee bc
       -0.05012457 0.062773034 -0.06519635 -0.029112354
000020 00 58 2e 3b 20 ec ea bd 4a fe 88 bc 0f 1f c2 bc
       0.0026602745 -0.114708185 -0.016722817 -0.02369645
000030 f5 89 d9 bc 87 f8 24 bd 18 d3 c9 3d c0 00 a0 3d
       -0.02655504 -0.040276077 0.09854716 0.07812643
000040 ed c2 c9 bd 3b 16 2e 3d 4c cd c8 bd 32 f0 d9 bd
       -0.09851632 0.04250167 -0.09804782 -0.10641517
000050 09 cb b8 3c 80 c9 f0 3a 7a 58 97 bd b8 e9 f6 bd
       0.022557752 0.0018370599 -0.073899224 -0.12056297
000060 56 bf 82 bd 51 49 e8 3c 38 f4 ec bd 16 ee 0b be
       -0.06384151 0.028355272 -0.115700185 -0.13665041
000070 e0 ea 81 3c 68 6c b8 bd cc 46 e0 bd 3c 44 45 bd
       0.015859067 -0.09005052 -0.109510034 -0.048160776
000080 68 dd a4 bc e8 a0 e8 bd 34 f0 aa bd 70 48 06 3c
       -0.020125106 -0.113588154 -0.08346596 0.008195981
000090 98 66 f1 bd ad 12 04 bd c6 4c a5 bd 00 78 b1 bd
       -0.11787146 -0.032244373 -0.08071284 -0.08665466
0000a0 e1 79 0b 3d 62 0a c5 bd 6c 01 c2 bd b1 5f 65 3d
       0.03405178 -0.09621121 -0.094729275 0.05599946
0000b0 18 74 bf 3c 7a 24 e9 3d f4 da 08 bd c0 4d 77 bd
       0.023370788 0.113839105 -0.033411935 -0.060376883
0000c0 00 89 3d bc 00 c9 25 3a a2 cf a3 3d 18 ff fe bd
       -0.011568308 0.0006324202 0.07998587 -0.12450999
0000d0 b0 d1 11 bc b1 7b 34 3d 0d 03 ad bd 84 15 82 bd
       -0.008900091 0.044063274 -0.084478475 -0.0635176
0000e0 b6 8c 5e 3d a0 4b f5 bd 88 a4 f2 3c 16 31 c6 bd
       0.05433341 -0.11977315 0.02961947 -0.09677331
0000f0 7d 8d 40 3d 49 e1 f2 bd a0 12 7f 3d 84 56 f2 bd
       0.047009934 -0.11859376 0.06227362 -0.11832908
000100 62 2f d7 bd 00 73 f1 3a 8b 34 7d 3d a4 c0 f3 bd
       -0.105070844 0.0018421113 0.061817687 -0.11901978
000110 c9 16 6a bd 90 d0 d4 3d e0 b8 ab bc 1c 1d 54 3d
       -0.057150636 0.10391343 -0.020962179 0.051785573
000120 71 ca 05 be dc fe 4b bd b6 bc 94 bd dc d2 d7 3d
       -0.13065507 -0.0498036 -0.07262556 0.10538265
000130 4d da 3c 3d 06 cc ba bd 4f 27 84 3c ca 4b ff bb
       0.046106625 -0.09120946 0.016132025 -0.007791017
000140 88 5d 52 bd b0 0d 9b bd c0 e6 29 bd b3 af ab 3d
       -0.05135873 -0.0757097 -0.041479826 0.08383121
000150 a2 83 b7 bd 86 ed be bd f1 c1 2f bd d1 8e f3 bb
       -0.08960654 -0.09322648 -0.042909566 -0.0074327965
000160 18 20 ee 3c 17 df 59 bb 2c 0c 93 bd c4 39 9b bd
       0.029068038 -0.0033244544 -0.07180056 -0.07579377
000170 78 6a c4 bc 78 1b 4e bd 08 b6 cf 3d 0c af ff bd
       -0.02397655 -0.050319165 0.101421416 -0.124845594
000180 90 b1 ad bd 1f b8 eb bd 98 24 bb bc 3d 46 b8 3d
       -0.08481133 -0.11509728 -0.022844598 0.08997772
000190 92 e3 cb 3d df 10 b8 bd 80 77 b1 bb 42 1e 85 3d
       0.09955515 -0.08987593 -0.005415857 0.06499912
0001a0 75 7d 57 3d 47 f4 c5 3d 40 3b 63 bb 2a 01 ac bd
       0.05260988 0.09665733 -0.0034672767 -0.083986595
0001b0 6a c2 9f 3d 80 92 2f bd 83 d5 6f 3d e9 d9 13 bd
       0.078007534 -0.042864323 0.05855323 -0.036096487
0001c0 f0 a5 59 3d c8 40 e6 3d f3 8c bc 3d 46 e6 c5 bd
       0.053136766 0.11242825 0.092065714 -0.09663062
0001d0 fd 35 be bd a7 b1 60 bd c6 2c ae bd 83 17 e5 3d
       -0.09287641 -0.054856922 -0.085046336 0.11186125
0001e0 08 28 ef bb 95 51 e0 bd a8 d5 63 bd 60 d6 bb bd
       -0.0072984733 -0.109530605 -0.05562368 -0.09171748
0001f0 b8 aa 3b 3d 56 71 ea bd f8 b1 ee bd fa 67 0e be
       0.045817107 -0.11447398 -0.116550386 -0.13906851
000200 81 5e 28 3d a8 d5 29 3d 12 fc ba bd 3d 4b 1e bc
       0.04110575 0.041463524 -0.0913011 -0.009661493
000210 f4 97 4f 3d 28 30 08 3d 26 26 8c bd e2 83 20 3b
       0.050682023 0.03324905 -0.06843214 0.002449267
000220 7b ac ac bc 32 ce 85 3c 32 6e b2 bd 14 48 56 3d
       -0.021078339 0.016333673 -0.08712424 0.052314833
000230 0b 4e 8f 3d 64 d1 ce bd c3 d6 eb 3c 01 3a da 3d
       0.069973074 -0.10098532 0.02878893 0.106555946
000240 00 c5 8a bd ae ea 01 bd a1 aa 3c 3d 14 2f 0d be
       -0.06775856 -0.03171795 0.046061162 -0.1378749
000250 dd 5d 98 bc a9 9b 23 bd 24 77 96 3d e1 f6 0b be
       -0.018599445 -0.03994337 0.07346943 -0.13668396
000260 e7 76 07 be 07 07 8c 3c 59 05 02 3d 2b af e0 bd
       -0.13228951 0.017093195 0.03174338 -0.10970911
000270 89 fd 10 be 10 b9 e8 bd 04 7f c3 bd 36 a5 9f bd
       -0.14159216 -0.11363423 -0.09545711 -0.07795183
000280 21 9b 9f 3d 1d 92 69 bd ae 08 93 3d d4 d9 cc 3d
       0.0779326 -0.05702411 0.0717939 0.10002485
000290 65 72 0d 3d 52 47 16 be a7 4c 7c 3d de b4 96 3a
       0.034532923 -0.14675644 0.06159654 0.0011497994
0002a0 5a bf ff 3c 55 71 17 be 28 30 87 3b 8f 3a 24 bd
       0.031219173 -0.14789326 0.0041256137 -0.04009491
0002b0 9b df 35 be e9 d2 10 3c 64 f0 7a 3d 8a 12 a4 bd
       -0.1776108 0.008839347 0.06126441 -0.080113485
0002c0 f8 56 3c 3c c0 3d 62 3d bc 1d f7 bc 4c e6 97 3d
       0.011495344 0.05523467 -0.030165546 0.074169725
0002d0 13 a3 a0 3d 5d 9e ab 3d a3 c5 aa bc 80 4b af 3d
       0.07843604 0.08379815 -0.020846194 0.08559322
0002e0 cd c8 22 be 30 5e af bd 83 65 26 bd cb c7 31 bd
       -0.15896912 -0.08562887 -0.040624153 -0.043403428
0002f0 5c e8 f2 3d 68 1b cc 3c 4d cb 2f 3d 80 e4 81 3d
       0.11860725 0.024915412 0.042918492 0.06342411
000300 a0 3b bf bd 90 33 6d bc 78 87 95 3c 4b 46 c3 3c
       -0.093375444 -0.0144776255 0.018253073 0.02383723
000310 89 33 0f 3d 29 95 8e bd 5b 21 4c bd ae 34 d6 3d
       0.034961257 -0.06962044 -0.049836498 0.104592666
000320 98 5d 5e bd c9 00 b9 bd 76 66 a8 3d bc 1f ae 3d
       -0.054288477 -0.09033353 0.08222668 0.085021466
000330 3f 07 e1 bc e0 d7 e4 bc 61 77 ee bd 10 6c 13 be
       -0.027469276 -0.027934968 -0.116438635 -0.14396691
000340 8a f3 76 3c bc 94 8f bd ea cc cb 3d 5d 9f c5 bd
       0.015072713 -0.07010791 0.09951194 -0.09649537
000350 e0 0f e5 bc 96 b2 de bb c3 be e4 3c 39 5f ce 3d
       -0.027961671 -0.0067961914 0.027922994 0.10076756
000360 19 60 82 3d 1f 74 48 3c 8f 0c 5f bd 62 d2 b6 bd
       0.063659854 0.012234717 -0.054455336 -0.08926846
000370 44 f8 06 be 57 06 93 bb 1c 33 cf 3d 9a 90 cf bc
       -0.13180643 -0.0044868398 0.1011717 -0.025337506
000380 80 6f ac bb 4c a3 a4 bd 60 30 1d 3d c7 d5 af 3d
       -0.0052623153 -0.08038959 0.038376212 0.08585697
000390 e7 bc 03 be 89 4f dd bd 49 e8 70 3d 68 72 f2 3c
       -0.1286503 -0.10806186 0.058815274 0.029595569
0003a0 aa 58 d2 bc ee ea 85 3b e0 b0 9b bc 82 c2 c9 bd
       -0.025677044 0.0040868437 -0.019005239 -0.098515525
0003b0 2c b5 f5 bd 8c 5f a8 3d 2f 9e 37 bd 3e f6 5a bd
       -0.119974464 0.08221349 -0.04482859 -0.05345749
0003c0 ac 27 04 bd d8 a0 8b bd 58 a5 17 bd 56 70 01 be
       -0.032264397 -0.06817788 -0.03702292 -0.12640509
0003d0 64 c8 b8 3d 6d ae 44 3d 95 5a ac bd d1 a7 3d bd
       0.090225965 0.048017908 -0.08415715 -0.04630262
0003e0 d0 b3 65 3d 55 de 87 bd f7 bb f6 3c 36 03 b1 3c
       0.056079686 -0.06634203 0.030118925 0.021607976
0003f0 7e a8 b1 bd e4 ec 0b 3d 40 9c fa 3b 00 0a f1 3d
       -0.086747155 0.034161463 0.007648021 0.117694855

fc2.bias f4 [64]
000000 d3 cd 62 3d 5d 28 8c bd d1 66 14 3d b7 42 01 bc
       0.05537207 -0.06843636 0.036230866 -0.007889441
000010 79 0b 4a 3d 32 8b d7 3d 46 76 00 be 4b af 00 3e
       0.049327347 0.10524596 -0.12545118 0.12566869
000020 ac e4 34 3d 94 05 73 bd 2b 30 0d 3d 24 cf 8d bd
       0.04416339 -0.05933149 0.034469765 -0.069242746
000030 1e e0 e8 3c 62 c6 ca 3c 31 80 0a be 22 59 17 3d
       0.02842718 0.0247528 -0.13525464 0.036950238
000040 5f e6 68 bd a1 55 c4 3d ff bf ff 3d fb 74 27 3d
       -0.056860324 0.09586645 0.12487792 0.040883046
000050 66 eb 89 3d e1 43 02 3d eb b7 22 3e c8 7b 44 bd
       0.06734352 0.031803016 0.15890472 -0.04796961
000060 22 71 4e 3d c6 f9 94 bc 09 fb 05 bd 66 d1 2b bd
       0.05040086 -0.018185508 -0.03271011 -0.041947745
000070 4f c3 88 bd e1 26 f2 3d 3d 9a bb 3d 2c 17 99 bd
       -0.06677877 0.11823822 0.09160278 -0.07475123
000080 bf d3 df bd f4 51 d1 3d f8 2d ef bd 7f c9 1b bb
       -0.10929059 0.102207094 -0.1167869 -0.0023771224
000090 be 7e e9 bd f6 7d eb 3d 2d 43 05 3e 10 ae d2 bd
       -0.11401127 0.114986345 0.13013907 -0.10287106
0000a0 c4 61 1c be 71 23 ba bd 93 52 d5 3c 2e a6 19 bd
       -0.1527167 -0.09088791 0.026040351 -0.037511997
0000b0 1d 04 29 bd 7a b3 59 bc ea d6 60 3c cb 15 2d bc
       -0.04126369 -0.013287419 0.0137231145 -0.010564278
0000c0 28 8e 2d 3d 25 f3 e9 bd 79 26 d5 3c 93 1e b9 3d
       0.0423719 -0.11423329 0.026019322 0.09039035
0000d0 c6 af 31 bc 06 3b 05 3e 67 3e 71 3d 9e 10 85 bd
       -0.01084513 0.13010797 0.058897402 -0.0649731
0000e0 c9 f4 a4 3c ce 13 a3 bd d1 58 06 3d f8 3d 65 3d
       0.020136254 -0.07962762 0.032799546 0.0559673
0000f0 69 55 93 3d f8 d9 bf bd ee d5 a4 bd bf 5a 9d bd
       0.07194025 -0.09367746 -0.08048616 -0.07683324

fc3.weight f4 [3, 64]
000000 5e 63 f9 bd 25 07 a4 bc d3 88 5f bd 55 2a 1e bd
       -0.12177156 -0.020022938 -0.054573845 -0.03861459
000010 e1 b7 b4 bc 20 b4 e8 3c e9 c6 57 3a ae 12 8a bb
       -0.022060337 0.028406203 0.0008231239 -0.0042136526
000020 43 ef 2c 3c 92 22 f5 3c 0b 8b 93 bc 7e d2 2c 3d
       0.010555091 0.029923711 -0.018010637 0.04219293
000030 e0 56 72 3d ed 45 dc bc 20 23 66 3d 1e 91 5f 3d
       0.05916488 -0.026888812 0.05618584 0.054581754
000040 1d db 75 bd c1 25 0a 3c 70 2f fc 3c 9c 58 a1 3c
       -0.060023416 0.008431853 0.030784339 0.019695573
000050 e7 6d ef bc 92 b2 a7 3d 6a 24 26 3d 38 7c 3e bd
       -0.02922721 0.081883565 0.04056207 -0.046505183
000060 dc 27 19 bd 6b ff 97 3d e8 2b 0e bb c1 e1 cd bc
       -0.03739153 0.07421764 -0.002169365 -0.025132062
000070 cf 0c 59 3d 18 70 55 3d 48 c3 15 3d 3f d3 8a 3d
       0.05299073 0.052108854 0.036563188 0.06778573
000080 65 d5 16 bd c1 37 f6 3d 79 4f df bd 42 81 83 bc
       -0.036824603 0.12022353 -0.1090383 -0.016052846
000090 c9 7e 46 3c 71 4d 99 3d bf 1c 5e 3d 8b 40 d4 3c
       0.012115189 0.07485474 0.054226633 0.025909683
0000a0 e5 95 c4 bb 3e dd 47 bc 91 e7 b7 3d c5 35 37 3d
       -0.005999314 -0.012198744 0.08979715 0.044729013
0000b0 37 bb c5 39 37 3f 8a 3d 03 9e a0 3d b8 8f 0b 3e
       0.00037714254 0.067503385 0.07842638 0.13629043
0000c0 f3 4b 32 bd 3b fc 60 bd b4 d8 16 3d f2 ad 6a bc
       -0.043529462 -0.054928046 0.036827758 -0.014323698
0000d0 34 93 4c 3d c3 8c 80 3d fa bd c8 bc ac bf 77 3d
       0.04994507 0.06276848 -0.02450465 0.060485527
0000e0 f8 52 93 3c c7 ac fa 3d 30 e4 fb 3c 2c 2b c3 bc
       0.017983899 0.12239986 0.030748457 -0.023824297
0000f0 1b ba b8 bc 39 1e a3 3b c4 d8 1c 3c 97 40 ce bc
       -0.02254968 0.004977968 0.009573165 -0.025177283
000100 b4 c6 f7 bd 69 60 80 3c d0 c5 43 bb 80 a7 47 bd
       -0.120984465 0.015670972 -0.0029872544 -0.048743725
000110 26 e6 31 3d f8 82 da 3d f4 39 13 3d de 98 8b 3d
       0.043432377 0.106695116 0.03594394 0.068162665
000120 39 85 58 bc ec 63 80 3d 13 b0 fc 3c 6f 28 3b 3d
       -0.0132153565 0.062690586 0.030845677 0.045692857
000130 ea de 07 bc 71 2e bb 3c 92 fb fc bb 7a 16 a5 3c
       -0.008292893 0.022849293 -0.007720419 0.02015232
000140 de df 66 bc f0 5b 9c bb 9f 27 3d bd f1 75 c4 3b
       -0.01409146 -0.004771702 -0.046180364 0.005995505
000150 c0 cc 26 bd f9 19 ad bc 56 d5 55 3d 3c f7 b1 bc
       -0.04072261 -0.021130549 0.052205406 -0.021724336
000160 81 ec b8 3d 79 bd 12 3e ea 84 f4 ba 10 7a b0 bc
       0.090294845 0.1433009 -0.0018655334 -0.021542579
000170 80 91 0e bd 70 3b 0b 3d 7b 7c 07 3d f9 32 dd bc
       -0.03480673 0.03399223 0.0330777 -0.027001845
000180 69 63 8e 3c 17 3b ea 3c 1e 4c 6a 3d a3 8c 46 3c
       0.017381387 0.02859263 0.057201497 0.012118491
000190 18 5a bb bd 57 1f 86 3d b9 6a 10 3d 85 a3 3c 3d
       -0.091480434 0.06548946 0.03525803 0.046054382
0001a0 8d 82 b5 bc c0 27 87 3d fa ff 2a 3d 48 4a 85 3b
       -0.022156978 0.065993786 0.041748025 0.004067693
0001b0 bc 83 06 3c a3 d5 80 3d 13 fd 13 3d 2d f8 d9 3d
       0.008210119 0.06290748 0.036130022 0.10643039
0001c0 29 8f 61 3b ce eb 83 bc b7 f0 bc 3d 0c c8 8f bc
       0.0034417605 -0.016103651 0.092256 -0.017551444
0001d0 de a4 95 3d 43 ce a9 3d 07 03 5a 3c 28 b8 c6 bc
       0.073068365 0.082912944 0.013306386 -0.024257734
0001e0 77 f3 83 bd 6e 1b 2a 3d 72 fc ff 3c 72 8c ae 3d
       -0.064429216 0.041530065 0.031248305 0.085228816
0001f0 19 ca 76 bd e2 ce 62 bb c7 2c aa 3d d8 04 82 3d
       -0.06025133 -0.0034608175 0.08309322 0.0634858
000200 16 f2 cf 3d b2 52 a7 3d 1c 94 5e bc 26 28 2a bd
       0.10153596 0.0817007 -0.013585117 -0.041542195
000210 86 f0 80 bc 23 66 ac 3c c4 ba 26 3c 95 bc 00 3c
       -0.01573969 0.021044796 0.010176364 0.007857461
000220 61 07 0d 3b d6 3b 77 3d f4 e2 44 3d f9 d3 73 3d
       0.002151929 0.0603598 0.048068002 0.059528325
000230 c7 94 c5 3c 7d b3 5b 3d ba 32 f5 bb 7c bb c1 ba
       0.024118794 0.05363797 -0.0074828537 -0.0014780606
000240 21 23 6f bc 3d 23 d1 3a 4b 3c 7b 3d d1 39 05 3c
       -0.014595778 0.0015955936 0.061336797 0.00813146
000250 04 5a bb 3d 16 9c e4 3c e6 62 a3 3c 47 f3 0e bd
       0.091480285 0.027906459 0.01994462 -0.034899976
000260 e8 3b 9f 3c d3 d3 22 bd ea d4 23 bd f0 01 c5 3d
       0.019437745 -0.039752793 -0.039997973 0.0961951
000270 39 c5 1d bd ed 1f fb 3c ee d3 73 3c d8 2a ea bc
       -0.038518164 0.030654872 0.014882071 -0.028584883
000280 71 5e 21 bd 7c d5 7a 3d c6 05 9c 3d 3f 67 8b 3b
       -0.039396707 0.06123875 0.07618289 0.0042542513
000290 21 32 b0 3d c1 26 2d 3d 4a 10 83 3d 3d a8 95 3c
       0.08603311 0.042273287 0.06399591 0.018268699
0002a0 d8 ac 61 bc e7 1c 79 bc c2 64 5b bd f5 51 a9 3d
       -0.013774119 -0.015204645 -0.053562887 0.08267585
0002b0 9b 7c 6e 3d 15 e9 84 3b 6c 66 29 3c 51 ff 93 3d
       0.0582243 0.004056106 0.010339361 0.07226432
0002c0 85 41 98 bd 3e c6 0c bc 58 b4 2f 3d 40 9b 0b 3d
       -0.07434372 -0.0085921865 0.0428966 0.034083605
0002d0 e9 c8 8b 3c b0 b0 c1 3d 3e a3 3a 3d 6f 0b 97 bd
       0.017063575 0.094575286 0.045565836 -0.07375228
0002e0 8c 2b 48 3d 54 d8 ac ba 1a a3 87 3d 73 12 c1 3d
       0.048869655 -0.0013187029 0.06622906 0.09427347
0002f0 9a de 2c 3d d8 6d 37 bc 05 44 9c bc d8 6f 7f bc
       0.042204477 -0.011195622 -0.019075403 -0.0155906305

fc3.bias f4 [3]
000000 bf 6d d3 3c a5 4d b1 3b 33 62 23 3e
       0.025809167 0.0054108673 0.15955429
